data/pt/mnistemp_weights.pt (torch, 514119 bytes, 10 tensors)

weight f4 [128, 784]
00000000: 3313 0bbd cae0 02bd dcf3 da3b 9376 98bc
00000010: 8a8a 0b3c fcc7 75bc 5cc7 25bb 1a28 08bd
00000020: adcd 03bd 4a5b 5abb bc8a bc3c d411 0ebd
00000030: 37a6 ab3b c514 2abc e5fd 09bd d3d5 f43c
00000040: c037 193c 9396 4ebc b7a9 463c ca0a 9bbc
00000050: 8caf e1bc 1527 9abc b30c 0abd ceb2 e93c
00000060: 2590 6fbc f7ea 34bc da60 fdbc 90c6 9bbc
00000070: a5b9 00bd ac75 fd3c e5f7 0bbd ec5b 87bc
00000080: 7eac 9c3c a047 9bbc 0137 c5bc 4ab9 eebc
00000090: e3ce e4bc caff 5dbb 0393 c53c 9e9e e1bc
000000a0: 8a4f 81bb 74a5 013d d3e9 8bbb fc66 683c
000000b0: 7515 83bc 93dd b53a b7cb 8bbb 2595 d8bb
000000c0: 8c2a c63c a773 c9bc dc66 acb9 5e5b 8d3c
000000d0: 16e1 093d 86ee 02bd 27a2 cc3c 87ef c13c
000000e0: 9e3d f33c a8c7 053d 5c82 a6bc 4a2e d139
000000f0: 47a3 d4bc 1e31 ae3c 9379 3d3b aaa2 f1bc
00000100: 2a04 fbbc 75f0 e03c 0862 06bd 470a c83c
00000110: 13f3 58bc a5a4 c6bb dc53 a6bc 83e7 e63c
00000120: ca72 023d 57f1 303c cc80 10bd 3ce3 ee3c
00000130: 351c be3c 77db d83b e70b b33c 57d5 bc3c
00000140: c709 cbbc 3d76 073d f759 853c 4afb cdbc
00000150: 4556 ec3c 3167 b23c 7112 e23c 4e3f 17bc
00000160: 6e43 e93c 9331 c9ba ea67 de3c 5ae0 ffbc
00000170: a543 f33c 4e78 b23c a37b 28bc 5cc7 a93c
00000180: 58a3 71bc ed46 113d 8ba5 023d ae83 8fbb
00000190: e169 57bc 01f8 e7b9 da1d f1bc 81aa 53bc
000001a0: d8d6 ec3c 97fd 04bc 2ea6 dd3c 2596 b93c
000001b0: 0179 b3bc 258e a8ba a585 edbc 2e5f eebb
000001c0: ee29 a33b 01cd fd3a 65c7 053c 8ea1 213c
000001d0: a839 e9bc 776d 45bc a821 e3bc ca79 e63c
000001e0: fe9e 0bbd 9382 aabb bba2 0dbc 86a0 8c3c
000001f0: 8ff6 1fbd dcc6 0ab9 b5d7 e03c 01f3 cbbc
00000200: 2453 0ebd 4c97 f73c 5725 9ebc 3556 87bc
00000210: 2545 27bc 9712 2d3c 779c cbbb 0707 02bd
00000220: 5e2f aabc 8542 273c 3e4e e03c ba8b 043d
00000230: 2a4b d93c 3382 6d3c ca21 023b 0067 803a
00000240: 53c3 04bd 7c82 fbbc 8090 a93b fa33 04bd
00000250: 096b fd3b 683b dcbc 719e 623c 3354 3dbd
00000260: 716d 16bd 2b82 f8bb 0e35 07bd a596 0dbc
00000270: b7d1 92b9 9804 79bc 3379 a3bc fb65 013d
00000280: 1ced 063d 2332 883c d372 933c 8061 87bb
00000290: ca4d 903c dae2 b13c 97f7 0f3c cfa5 0a3d
000002a0: 5c3d 883c 2e8c edbc 92bc 093d ca8b f93c
000002b0: 3786 2d3c 7ccc af3c 07f7 863c 3bd7 91bc
000002c0: 1bf5 663c 5b43 eabb c0e3 d3bc 9aee 223c
000002d0: a53d 0f3b 0863 4dbc 33cd d13c 6537 c73b
000002e0: a892 f93c 0ebb 433c e5d6 2a3c 1c1b c2bb
000002f0: f5a1 eebc 87ca b93c 85fb d93c cafc 073c
00000300: 6c9b 84bc b855 793c eeff 40bc 4a67 82ba
00000310: e1c7 71bc 5c32 563b 9cb6 cf3c 852e 553c
00000320: 4545 2abc bef2 2ebd 55a8 c9bc 5678 77bc
00000330: fd89 23bc 3d7c 783c 7b96 723c f671 91bc
00000340: fdd5 93bc fbbc febc 5bd5 413b 423e 09bd
00000350: 934a 913b 2fdc 13bd 0fe9 773b 8e41 fdbc
00000360: c354 76bc bbbc 7b3c c48e 743a dc03 36bc
00000370: 2135 d23c 00d2 93bc 819e 53bc eaaa 55bc
00000380: e5e8 ddbb 7aa9 863c 3116 dbbc b715 12bb
00000390: e59e d23c 8ac5 08bc 838c a63c 6486 0b3d
000003a0: 5e02 07bd 30e5 22bb ca69 14bd 45f8 7c3c
000003b0: 30e8 7abc 3f61 3cbd cc71 6f3c 12d8 b1bc
000003c0: c558 bebb d944 82bc 5c9d 813b b1fb ce3c
000003d0: aa1b 58bb 5a30 573c 3e22 0d3c 3f13 b03c
000003e0: 6931 903c 1055 f23c 5f29 f63c 85e9 a03c
000003f0: 3807 043d 5074 913c d300 953c e173 fdbc
-0.033953857 -0.031952657 0.0066819023 -0.018611228 0.008516917 -0.015001293 -0.002529583 -0.03324137
-0.03217857 -0.0033318573 0.023015372 -0.03468497 0.00523832 -0.010380928 -0.0336894 0.029887116
0.009351671 -0.012609142 0.012125424 -0.018926043 -0.027549528 -0.018817464 -0.033703517 0.028527644
-0.014621769 -0.011042348 -0.030929971 -0.01901558 -0.031427044 0.0309399 -0.034171958 -0.016523324
0.01912522 -0.018955052 -0.02407408 -0.029141087 -0.027930683 -0.0033874386 0.024117952 -0.027541455
-0.0039462494 0.03165193 -0.0042698174 0.01418471 -0.016001442 0.0013875238 -0.004266228 -0.0066095763
0.02419021 -0.02459128 -0.00032883033 0.017255481 0.033661924 -0.031965755 0.024979664 0.023673786
0.029692467 0.03266111 -0.020325832 0.00039898074 -0.025956763 0.021263655 0.0028911575 -0.02949651
-0.030641634 0.027458409 -0.032808334 0.024418963 -0.013241547 -0.0060621076 -0.02030366 0.028186565
0.031847753 0.010799727 -0.03527908 0.029161088 0.02320681 0.006617959 0.021856261 0.023050947
-0.024784936 0.033071745 0.01627825 -0.025144238 0.02884973 0.021777721 0.027596684 -0.009231402
0.028474536 -0.0015349857 0.02714916 -0.031234909 0.029695341 0.021785881 -0.010283384 0.020724945
-0.014748417 0.03546803 0.031896155 -0.004379711 -0.013147802 -0.0004424453 -0.02943318 -0.012919069
0.02891104 -0.008117101 0.02705678 0.022654602 -0.021908285 -0.0012859745 -0.02899439 -0.00727453
0.0049793636 0.0019363464 0.008165215 0.009865178 -0.028469875 -0.012050024 -0.02772601 0.028134245
-0.034087174 -0.005203554 -0.008644755 0.017166387 -0.039053496 -0.00013234786 0.027446607 -0.024896147
-0.034747258 0.030223511 -0.019304914 -0.016520599 -0.010209356 0.010563514 -0.0062137204 -0.031744983
-0.02077454 0.010208731 0.027381059 0.032359816 0.026525099 0.014496374 0.0019856566 0.0009796321
-0.03241284 -0.030701868 0.0051746964 -0.03227613 0.007733707 -0.026883796 0.013831721 -0.046222877
-0.036725465 -0.0075838766 -0.03300958 -0.0086418735 -0.0002800354 -0.015198849 -0.019955253 0.031591397
0.03294097 0.01662547 0.017999088 -0.004131496 0.017615218 0.021714617 0.008787057 0.033849534
0.01663082 -0.028997507 0.0336271 0.030462164 0.010591081 0.02145981 0.016475214 -0.017802825
0.014096524 -0.0071491427 -0.025865436 0.009944582 0.0021856811 -0.012535818 0.025610542 0.0060796016
0.030465439 0.011946453 0.010427211 -0.005923642 -0.029129962 0.02267958 0.026609192 0.008300016
-0.016187392 0.015218191 -0.011779768 -0.0009948995 -0.0147571275 0.0032683825 0.02535563 0.013011579
-0.010392492 -0.042711966 -0.0246164 -0.015104374 -0.009981629 0.015166339 0.014806385 -0.017754536
-0.018046374 -0.031095972 0.0029576633 -0.03350664 0.004433939 -0.036098655 0.0037828123 -0.030915048
-0.015034857 0.015364821 0.0009329135 -0.011109319 0.0256601 -0.018044472 -0.012916208 -0.013041237
-0.006772148 0.016438235 -0.02674398 -0.0022290775 0.025710532 -0.008347878 0.020330673 0.03406371
-0.032961242 -0.0024855845 -0.0362337 0.015440051 -0.015314147 -0.04599118 0.014614534 -0.021709476
-0.005808922 -0.01590197 0.0039555263 0.0252665 -0.0032975473 0.0131340865 0.008614121 0.021493552
0.017601686 0.029581577 0.030049024 0.0196426 0.032233447 0.017755657 0.01818887 -0.030939044

bias f4 [128]
00000000: f16c 14bc 8fbf 8bbc b107 7d3c b097 17bd
00000010: bafe 2abc 895e 67bd f6ce edbc 00b2 d03d
00000020: 9880 36bd b9f9 85bc b656 f43d 9f50 12be
00000030: 4261 06bb 5627 0bbd 7f6f 5f3c e754 fb3d
00000040: 0d0b 97bd 9da9 a3bb 52f8 98bd 7742 90bb
00000050: 3a27 ca3d 257d 41bc 0060 b23d b7a2 b7bd
00000060: c6fb be3d 7405 273d 2e79 743e 5080 443e
00000070: 6949 b9bc 369b e8bb 439b 193e 8280 493c
00000080: 6d9c cebc c260 6abd e5e3 1d3e 78e7 87bc
00000090: 27f7 233d bb2a 70bd 053d 83bd d036 febc
000000a0: 3185 4c3d 2d00 54bd 954f e73c 7eb4 acbd
000000b0: 375d 313d ff30 59bc c293 e5bd 3e28 963d
000000c0: 78a4 fdbb 3134 3cbc d03a 033d 3d6a 1abd
000000d0: aa7c e4bd 1ae9 1cbd b0f5 4f3e 4e49 863d
000000e0: a6c0 a9bc e8fb 0bbe 64cf e13d 84ca e3bc
000000f0: b5e7 1dbd d789 843c fa6c f3bb 3502 2b3e
00000100: 806a 09be 429b e6bd 4253 c5bc 1abf 9a3c
00000110: a411 dd3d 9858 2c3e e915 073d a961 2e3d
00000120: be5d 113c 36d1 89bd a7d1 e7bd 21d0 60bc
00000130: 00a6 ad3b 81d4 f03c 5bd5 983d 66f7 593c
00000140: 41a6 903d dd07 cfbd b17a aa3d 274a 81bd
00000150: dcf0 253c 22e4 893d 856e 9ebc f096 04bc
00000160: 293f 07be c024 1abe 7d08 803c 6adc 08be
00000170: 91b3 37bc 2488 3cbd d39d eebc b05d 803b
00000180: e170 aabd 02ed 263e 47b7 97bc 089d ac3c
00000190: 464f 13bd 6c84 c537 8569 84bd 930b 7e3d
000001a0: 069b e8bd ccd1 f33c 845e da3d e38b 61bd
000001b0: a09f ea3c 302c 563d 3a00 12bd 69c5 a0bd
000001c0: 212e 2d3d 27d6 273d 5980 70bd 6e14 d8bc
000001d0: 480e 903d c4a8 b1bd 899f babd d0f4 123d
000001e0: a1e2 86bc 1689 6abb a03d 4339 f342 373d
000001f0: ba87 d3bc b42e b93d ba13 15be be3d 0abd
-0.009059177 -0.017059116 0.015443728 -0.037009895 -0.010436708 -0.05648664 -0.02902935 0.10190201
-0.04455623 -0.016354429 0.11930601 -0.14288567 -0.0020504748 -0.03397306 0.013637423 0.12272053
-0.07375155 -0.0049945847 -0.07469238 -0.0044024545 0.09870763 -0.011809622 0.08709717 -0.08966582
0.09325366 0.040776685 0.23874351 0.19189572 -0.022618013 -0.0070985807 0.15000634 0.012298705
-0.025221074 -0.05722118 0.15418966 -0.016589865 0.040030625 -0.0586345 -0.06408123 -0.031031996
0.04993171 -0.05175798 0.02823619 -0.08432864 0.043301787 -0.0132563105 -0.11209823 0.07331894
-0.0077405535 -0.011487053 0.03203851 -0.037698973 -0.1115659 -0.03830824 0.20308566 0.065569505
-0.020721745 -0.13670313 0.11025885 -0.027806528 -0.03855105 0.016179008 -0.0074287625 0.1670006
-0.13419533 -0.11260082 -0.024087552 0.018889952 0.1079438 0.16830671 0.03297988 0.042573605
0.008872448 -0.06729357 -0.11319285 -0.013721497 0.0052993298 0.029398205 0.07462569 0.013303613
0.070629604 -0.10108922 0.08324183 -0.063129716 0.010128226 0.06732966 -0.01933981 -0.008092627
-0.13207687 -0.15053082 0.015629048 -0.13365331 -0.011212246 -0.04602827 -0.02912799 0.0039174184
-0.08322311 0.16301349 -0.01852001 0.021070972 -0.035964273 2.3545894e-05 -0.06465439 0.062022757
-0.113576934 0.029763125 0.10662559 -0.055065047 0.028640568 0.052288234 -0.035644747 -0.07850153
0.04228032 0.040975716 -0.058716152 -0.02637693 0.07033974 -0.086747676 -0.0911246 0.035878003
-0.016465487 -0.0035787276 0.00018619606 0.044741582 -0.025821555 0.09042111 -0.14558306 -0.03375029

weight f4 [128, 128]
00000000: 7b40 173d 22cf 0abe 9145 fc3e 9c47 953c
00000010: 591f 98bd 7ace c7bd 4fa4 7bbd 27ec 5c3e
00000020: a273 14be 4666 c7b8 d5e2 8c3d 6e25 053d
00000030: ea78 73bd f7b1 dabd 1743 fa3c b2cf 633e
00000040: fba1 9cbd 423a e23a bc42 5abe 2e82 38bd
00000050: fb30 063e b393 a9bc 976c a43d 09f8 f1be
00000060: c796 7ebc fa8f 0dbe a76e 40be 1036 4abe
00000070: 6306 873e 6389 9bbe 523c b9bc b4f9 173c
00000080: 1ab4 333d f879 edbc 720d 353e 76b2 0dbc
00000090: f8a0 dfbc b11c dbbd 5e0c b63d 39f9 333e
000000a0: e453 e63d 5fd9 cebe 4813 a5bb b528 c83d
000000b0: 16db 94bd 9103 233e 684c 42be 421f bdbd
000000c0: 656a ce3c 3bcc dbbe a2c4 a23c 7eca 10bd
000000d0: 92dd 03bd c803 9ebd 8e2b 29be aaa1 cfbd
000000e0: 8fd7 5abd 8e9e c0bd 4458 7b3e 6b9e 72bc
000000f0: c331 6f3e 9812 913c 2696 f13c e024 fbbd
00000100: 575a 9cbd cc1d 563d c5d0 8fbd 7a14 193d
00000110: b169 00be 7279 a8bc a579 073e 1ffb a2be
00000120: bb0a 5f3d e3c5 afbd 1a44 2dbe 090a 073d
00000130: 3ee0 183d ebfa b13d 356b 83be 0f10 9d3d
00000140: 105e 16be b438 dd3d 0426 033d 2002 24be
00000150: c9e4 8f3e 7520 32be 5ec4 2fbe f528 fd3d
00000160: 8064 81be 5f95 edbe 85a4 e2bd e971 bebe
00000170: 5627 84be b8c2 aa3d 11b1 e1bd eafc 08be
00000180: 12d0 b53d 9e42 523d 9f72 4b3d 2fec 82bd
00000190: 8c7c b03d 2a92 6ebd 1b06 babc 1d86 ecbe
000001a0: 65ff 74be 4c8e 09be 93b1 8cbd f8a5 5f3d
000001b0: 098f 743e 7b96 1ebe 3217 52bc 3bf7 14be
000001c0: ce09 4dbe b3ed 54be b737 993d ff1a 573d
000001d0: 29a7 2c3c 2a13 b2be 9801 56bc 1821 dc3d
000001e0: 26cf 093b 654a 8abb a631 8fbd 388f 8bbb
000001f0: 68d6 cabd 44d6 1f3e 8599 c23d 5837 afbd
00000200: 3950 3ebd 4780 79be 5544 4dbe 6cc3 493d
00000210: e017 873d 1885 8f3c e611 57bd 3bb8 003e
00000220: 8d68 86ba b61f d5bc 5b7f 72be d019 4bbd
00000230: 1863 5cbd f880 68bd 73a7 f53d 6d65 c1bd
00000240: 3b84 0cbe 1245 9e3b 8db9 483e 9711 2c3e
00000250: 5a83 f43d 5e4f eebd c66c b9bd 995d 3d3e
00000260: 4868 ff3c d1fc 733d 4c1b ba3d 5a98 30bc
00000270: c2d3 d6bd 74a9 84bd 1dea 323e 0d8f a63e
00000280: 63ee da3c 09d2 923e c5d4 d73d bff2 f83d
00000290: fc5c afbb a3f7 313d 4bb9 0a3c 20fb 10bc
000002a0: beb8 1abb d852 dd3d 9a49 073d 06ba b5bd
000002b0: a242 883d 35c4 b4be f060 eb3b 3ec6 873e
000002c0: 960a 3dbe 6b96 ff3d 860d 873e 1278 15be
000002d0: 2796 a53d 07b7 5bbd b400 083e c051 d63d
000002e0: 09df c43c 19c7 1cbc 2cc6 afbe eb77 f2bc
000002f0: 39eb e23c cb01 c63b 5e2f 8c3a 7c61 433e
00000300: 25f9 5c3d 9404 b73d 8cc1 9abd bd8a 59bd
00000310: 92a2 24be 529d 803d c8df b43d 9a2a 343e
00000320: 5e37 35bd 6aba d03a 8297 053e 3b7a 3c3d
00000330: 2230 af3d 50d5 d13d 61f1 273d 2953 9abd
00000340: ac4e 4d3d 024e a53c 9ffa 293e bcd3 fbbd
00000350: 6fb7 8fbd da45 a2bd 9425 413e 36bf 913e
00000360: c3fc 4b3e 1a06 5b3d f479 34be fcb8 923d
00000370: deb9 c33d 05db bbbd fc42 8ebb f3ce 12be
00000380: bc91 16be de63 c4bd 3aa5 9bbd 54f2 8abd
00000390: d28a 3f3e 50c2 293e 8366 09bd 4fc0 573b
000003a0: 2a7c cc3d f6ea 9bbd 0015 d13d da96 d6bd
000003b0: 2d0a 883c c2bd d03d 191a 873c f0de 92bc
000003c0: 7085 c5bd c33f 0b3e 5ff4 dc3d 2497 f83b
000003d0: a9d4 043e a4e5 0d3e 24bd c43d 1b29 6cbe
000003e0: f1e7 62bd 9305 78bc 69b3 cb3d 1afa a93d
000003f0: 8131 9ebc 5bd8 4fbe 9436 963d 7725 a83c
0.036926728 -0.13555577 0.49271825 0.018222623 -0.07427854 -0.09756179 -0.061435994 0.2157446
-0.14497235 -9.508109e-05 0.06879202 0.0325064 -0.059441485 -0.10678475 0.030549569 0.22247198
-0.07648083 0.0017259794 -0.2131452 -0.045046024 0.13104622 -0.020700311 0.08028524 -0.47259548
-0.015538878 -0.13824454 -0.1879221 -0.19747186 0.2637206 -0.30378255 -0.02261177 0.009275842
0.04387293 -0.028988823 0.1768091 -0.008648505 -0.027298436 -0.10698832 0.088890776 0.1757554
0.112464696 -0.40400216 -0.005037699 0.09773389 -0.0726835 0.15919329 -0.18974459 -0.092344776
0.025197217 -0.42929253 0.019869152 -0.03534936 -0.032193728 -0.07715565 -0.16520521 -0.10138257
-0.05342823 -0.09405242 0.2454539 -0.014808278 0.23358826 0.017709062 0.029490542 -0.12262893
-0.076344185 0.05227451 -0.070222415 0.037373044 -0.12540318 -0.020565722 0.13229997 -0.31832215
0.054453593 -0.08582666 -0.1692051 0.032968555 0.03732323 0.08690437 -0.2566773 0.076690786
-0.1468432 0.10801831 0.032018676 -0.16016436 0.28104237 -0.17395194 -0.17164752 0.123613276
-0.25271988 -0.46403024 -0.11066536 -0.37196282 -0.2581126 0.08337921 -0.11020101 -0.13377729
0.08877577 0.051333062 0.049669858 -0.06392705 0.086175054 -0.05824486 -0.02270799 -0.4619607
-0.2392555 -0.13433188 -0.06869807 0.05460164 0.23882689 -0.15487091 -0.012822913 -0.14547436
-0.20023271 -0.207938 0.0748133 0.05251598 0.010537901 -0.34780246 -0.013061903 0.107485
0.002102801 -0.0042202943 -0.069918916 -0.0042590164 -0.09904176 0.1560908 0.09501938 -0.08555478
-0.046463225 -0.2436534 -0.20045598 0.049258634 0.06596351 0.017519519 -0.052507304 0.12570278
-0.0010254547 -0.026016098 -0.23681395 -0.049585164 -0.05380544 -0.05676362 0.11994829 -0.094431736
-0.13722317 0.004830011 0.19602032 0.16803585 0.11939116 -0.11636232 -0.0905395 0.18492736
0.031177655 0.059567276 0.09087238 -0.010778511 -0.10489608 -0.06477633 0.1747212 0.32531014
0.026725 0.2867587 0.105386294 0.12155675 -0.005351661 0.043449055 0.008467029 -0.008848935
-0.002360865 0.10806817 0.033029176 -0.08873372 0.06653334 -0.35305944 0.0071831867 0.26518434
-0.1846107 0.12479862 0.26377505 -0.14596584 0.0808528 -0.053641345 0.13281518 0.10464811
0.024032133 -0.009568953 -0.3433088 -0.029598197 0.027700054 0.006042694 0.0010695269 0.19080156
0.05394854 0.0893642 -0.075564474 -0.053110827 -0.1607764 0.062800065 0.088317454 0.17594376
-0.044242255 0.0015924696 0.13046077 0.046015006 0.085541025 0.10245764 0.04100168 -0.07535393
0.050123855 0.020178799 0.1659951 -0.122962445 -0.07017409 -0.079234794 0.18861991 0.28466195
0.1992064 0.053472616 -0.17624646 0.07164189 0.09556936 -0.09172634 -0.0043414813 -0.14336757
-0.14704031 -0.09589361 -0.07599874 -0.06784502 0.187053 0.1657803 -0.03354503 0.0032921021
0.0998462 -0.076131746 0.102090836 -0.104779914 0.016606415 0.101924434 0.016491937 -0.01792857
-0.09644592 0.13598542 0.107887976 0.0075863767 0.12971748 0.13857132 0.09606388 -0.23062555
-0.055396978 -0.015138048 0.09946329 0.08299656 -0.019310715 -0.20297377 0.07334629 0.020525677

bias f4 [128]
00000000: c9fe 023e 93f7 f03c 8c63 17be 99d8 4b3e
00000010: f8a9 033e d5a1 4dbe 8a07 03be 1e77 203d
00000020: af69 84bc 006c 10be 1bc5 65bd ac6c 0b3d
00000030: ad6b 24bd bd00 1cbe d6c3 c13d 1e71 43be
00000040: 686c f53d fa9e 8d3c cdc9 953d 354d 853d
00000050: a0db 2abe ad0b 3ebd 9c35 a5bd 56ce 293d
00000060: 1c95 2e3e f748 01be be7d febd 1a05 053b
00000070: 573c 073e 6dd6 4abe a5ad 023e 6821 ba3d
00000080: c9aa 1e3e ea5f 543e 4d6b 143d a760 313e
00000090: 10fb 033a 3df8 513c d774 d4bc 8dab 93bd
000000a0: fdcd 073e 5cd5 273e 4f93 7f3c 7b31 053d
000000b0: b07e 89bd 0845 e8bd 0bb5 25be c184 b13d
000000c0: 0baa 3a3e 322f ec3b 002e cbbc 1373 dbbb
000000d0: 2724 b33d a0b4 a33d ca10 2f3e 332f 933d
000000e0: 4e35 e1bd 31bf 583d 820b 963b 9205 543e
000000f0: e900 cc3d e394 873e 25e3 3c3e dfac b03e
00000100: 0362 52bd 4d49 b9bd 1c1f 72bd b887 ae3b
00000110: 1dd4 b6bd 35bc 0a3e d834 82bd 623e 2abd
00000120: 910d 523d e58f f33d 3ef1 8dbe de04 8d3e
00000130: 7e5a 283d 23af 5f3e e7b4 d5bd 4bf9 013d
00000140: ab6f 4b3e 6545 5a3d d25b 1c3e 26f8 a9bc
00000150: 4815 533c 4a24 073e d670 0cbe 4cbe e9bc
00000160: 10c0 a6bd aa86 2a3d 369d 8f3c b099 42be
00000170: 1e17 56be 5a0c 823c d44d 273e 5b79 e53b
00000180: 00d5 ef3d 5c77 b3bd 60de e3bd e767 cebd
00000190: e91f 27be f5f9 b9bd 2699 5a3e 40b2 363e
000001a0: 2bc9 a0bb e77f 3ebc ba44 5fbc c7ee d03d
000001b0: 53cd 3e3d 79e1 f43b 0f64 953d a1b9 933e
000001c0: 422a 74bd 25d9 78bd 70f2 a83d 3e3e 6bbd
000001d0: 4fbc 003e a736 d53d c9f3 363c 5a3f 83bd
000001e0: 7564 cb3d 9dd1 c6bd 9ffb 55bd e64b d1bc
000001f0: e865 06be 7ab5 1cbe e1d2 6abe 8255 d63c
0.12792505 0.029414928 -0.14784068 0.19906844 0.12857807 -0.20081265 -0.12795845 0.0391761
-0.016163675 -0.14103699 -0.056096178 0.034039184 -0.04014175 -0.15234657 0.09461181 -0.1908612
0.119835675 0.01728772 0.07313881 0.06508867 -0.16685343 -0.046397854 -0.08066866 0.041456543
0.17049068 -0.1262549 -0.12426327 0.002029723 0.13206612 -0.1980836 0.12761553 0.09088403
0.15494837 0.20739713 0.036235142 0.17322026 0.00050346646 0.012815532 -0.02593462 -0.07210455
0.13262172 0.16389984 0.015599086 0.03251789 -0.06713617 -0.11341292 -0.16182344 0.08667899
0.18228929 0.0072077746 -0.024802208 -0.0066970675 0.0874713 0.07993436 0.17096248 0.07186737
-0.10996495 0.05291671 0.0045790086 0.2070525 0.09961111 0.2648078 0.18446024 0.3450689
-0.051363003 -0.09047184 -0.0591117 0.0053262375 -0.08927176 0.13548358 -0.063577354 -0.0415634
0.05128247 0.1189268 -0.27723116 0.27542776 0.041101925 0.21844153 -0.10434895 0.031731885
0.19866817 0.053288836 0.15269402 -0.02074821 0.012883492 0.13197437 -0.13714918 -0.028533123
-0.08142102 0.041632332 0.017531019 -0.1900394 -0.20907256 0.01587503 0.16338283 0.007002992
0.117105484 -0.08763 -0.11126399 -0.100784115 -0.16320767 -0.09080879 0.21347484 0.17841434
-0.0049067936 -0.011627174 -0.0136272255 0.10201793 0.04658253 0.0074731675 0.07294475 0.2885256
-0.059610613 -0.06075396 0.08249366 -0.057432406 0.12571834 0.10410815 0.011166521 -0.06408568
0.0993127 -0.09707949 -0.052241918 -0.025548887 -0.13124812 -0.15303603 -0.22932006 0.02616382

weight f4 [64, 128]
00000000: 396f e23d 007e 1f3d 5050 31be f6aa e83b
00000010: 3c9e 443d a6f8 2f3e 3368 92be 2c1c e8bd
00000020: 1eb0 cebb ee82 25be 4afc 4ebd 09be 28bd
00000030: a7ce bfbd ef67 3e3c 87af 873d 541f 28bc
00000040: 14e9 a1bd c2de 8abd e6d7 d13d dcdd 54bd
00000050: 03d0 6dbd df82 1cbe 9558 fabc e5e4 c5bd
00000060: 17f4 5a3d f401 17be d884 b4be c00a 2e3d
00000070: a672 0e3c 44e4 803c 1d41 f2bd fde9 b6be
00000080: 9bae 28be c3f7 27bd afa5 2cbe ce3e 953d
00000090: 028e dbbd ff18 82be 552a b6bd 40f1 1bba
000000a0: 74f8 7b3d 2b60 1d3d 945f 8c3d 072f d4bc
000000b0: e2fd b03d 2202 2bbe ddb7 483e 4a2d 803d
000000c0: 4477 f03d c4ff 8ebd a4d2 09bd 2062 1bbd
000000d0: 74fd 6dbd c2dc fe3c 6553 18bd e6c7 aebd
000000e0: f23d 03be 2e79 ccbd 6bb5 f1bd 0895 dfbc
000000f0: a2a3 5f3e e438 bd3d 4271 193e efb9 0a3d
00000100: 977c 513e e8d8 1abd d644 80bd f18a 6d3c
00000110: 0e49 b03c ddc0 6d3d c753 00be cc19 5fbe
00000120: 055e fc3d e5ee e03c 277b 093e ccd4 56bd
00000130: 390f 03be a5bc cfbc d296 40bd 70c9 5abe
00000140: 95c1 913d 95f9 ffbd 080d 893d 0697 263c
00000150: 8b67 193d 2f6c f1bd b226 a0bd a589 02be
00000160: d618 cbbd 55bc 72be a863 cebd f670 02be
00000170: 841a fcbd 8bf1 ddbd b57c 823d a25b 0b3d
00000180: a35e 17be a622 0bbc 0a93 88be 08b6 57be
00000190: 9494 33bc edc5 d7bc d26d 773d 7c60 8a3c
000001a0: 08f7 32be a0c0 abbc cc73 c0bd d54f e3bc
000001b0: ed9d 1dbe e36d 53bd 997a ae3d 06d7 013d
000001c0: f615 c2bd f30f 08be 7e74 5c3d 3019 2ebe
000001d0: 7d0a bfbd 49bb 583d 530f 59be 7359 81be
000001e0: 6756 bf3d 2bdc 223d 1bec 0d3b c81d fabd
000001f0: 521c 67bd 00ea 5d3e 35e0 44be 091d 783e
00000200: 5e86 da3d be2b aabc 7bd1 b6bc 6dba 89be
00000210: 0b44 4cbd 6be2 913d 0518 203c 29b7 0abe
00000220: 7c5b 84bd a1bc 543e 7f02 2a3d eab7 2ebe
00000230: 73a1 1cbe c82d 6f3d 5cd1 4bbe 6181 6ebd
00000240: 7cb4 98bd 20cb 643d 35b7 1bbe 0a65 06be
00000250: 908e 93bc 03ea 86bd d705 da3a 2fae 27be
00000260: cd41 81be b572 233e fa66 003e 2120 92bc
00000270: e738 bc3d 1e93 6b3d aa3f b33c b904 3cbd
00000280: 9595 093e 9558 c53b 85ce 24bd afd2 0bbe
00000290: 2a00 84bd 76c1 df3d 82af 93bd 9d0e e43c
000002a0: cfe9 533e a31e 45be 2dc8 84bd 6532 38bc
000002b0: 4ae3 d2bd bf1f 133e df0d a6bd 9181 a7bd
000002c0: 26b7 2dbe 341a 86bc 14cf 3bbd a3b7 3fbe
000002d0: ee37 09be caea 013d 9a08 26be f1ad 90be
000002e0: 5ebb da3d bc2f a2bd 3c2b 52bd 437e 0abe
000002f0: e485 863d 5f8b 23bd 3e1c 2e3e c828 b1be
00000300: 61c9 0c3e 78f6 78bd 4204 6abe 0401 e7bd
00000310: 4328 413c 426b 433e 104b 173e dacb 6ebd
00000320: 95e4 45be eb1e 3e3d 63ea d7bd 0d89 49be
00000330: 2050 ffb9 2261 78be 3c69 2c3e 4210 c63d
00000340: efd9 e7bd ccaf 983c f811 bebd 4527 a4bd
00000350: 9b72 763e 2f7a ad3d 4a14 ac3c e520 40bc
00000360: 1595 7cbd 429e a63d 1d4c f2bd b299 cbbd
00000370: a7ef e83d 4072 19bd 8257 38be 3156 c4bd
00000380: dad5 ff3d 4037 bdbd d16c 0a3c 3a90 bdbd
00000390: 50fa 3c3d 60a6 44be 2f8e abbd 734c 99be
000003a0: 0369 a2bc 7792 e6bd 6ee0 5e3e 1104 693e
000003b0: ae09 74bd a9db f13d 4528 dbbd 9eff ebbc
000003c0: 4665 d1bd e018 b7bd 3034 1abd 8a8e 37bd
000003d0: 198d 8abe 67b2 9abd c316 e1bc b161 fa3d
000003e0: 5445 14be 4b60 babd 5ec1 0f3e 5d84 cd3d
000003f0: 4312 273e 9318 40bd 802e e93d 541c bbbd
0.1105637 0.038938522 -0.17315793 0.0071004583 0.048002467 0.17184696 -0.28595123 -0.11333498
-0.006307616 -0.16163227 -0.05053357 -0.041196857 -0.09365588 0.011621459 0.06625276 -0.010261375
-0.07905784 -0.06780769 0.102462575 -0.051969394 -0.058059704 -0.15284298 -0.030559817 -0.09662799
0.05345544 -0.14746839 -0.35257602 0.04249072 0.0086943265 0.015733846 -0.118288256 -0.35725394
-0.16472857 -0.04100777 -0.16860078 0.0728737 -0.10720445 -0.25409696 -0.08894793 -0.000594873
0.06151624 0.03842179 0.068541676 -0.02590133 0.08642174 -0.16700032 0.19601388 0.06258638
0.11741498 -0.06982377 -0.03364815 -0.037935376 -0.05810304 0.031111125 -0.037188906 -0.08534221
-0.12816599 -0.09984051 -0.11802181 -0.027292743 0.21839765 0.09239367 0.1498461 0.033868726
0.20457684 -0.037804514 -0.062631294 0.014498458 0.02151921 0.058045257 -0.12531959 -0.21787184
0.1232262 0.027457664 0.13425885 -0.052449033 -0.12798776 -0.025358507 -0.047018833 -0.21365905
0.07117001 -0.12498776 0.06691939 0.010167843 0.037452262 -0.117882125 -0.078198805 -0.1274782
-0.099168465 -0.23704655 -0.10077602 -0.12738404 -0.12309745 -0.10837086 0.06371442 0.034022935
-0.14782195 -0.008492148 -0.26674682 -0.21065533 -0.010960717 -0.026339496 0.060407467 0.01689171
-0.17477047 -0.020965874 -0.093970865 -0.027748028 -0.15392275 -0.051618468 0.085194774 0.031699203
-0.09476845 -0.13287334 0.053822033 -0.17001796 -0.09328172 0.052912984 -0.21197252 -0.25263557
0.09342652 0.03976075 0.0021655622 -0.122127116 -0.056423493 0.21671295 -0.19226153 0.24229826
0.1067016 -0.020772811 -0.022316685 -0.26900044 -0.04986958 0.07123264 0.009771352 -0.13546433
-0.06462762 0.20775081 0.041506287 -0.17062345 -0.15295963 0.05839327 -0.19904083 -0.058228854
-0.074563 0.055857778 -0.15206607 -0.13124481 -0.018012315 -0.06587603 0.001663382 -0.1637504
-0.25245515 0.15961726 0.12539282 -0.017837586 0.09190541 0.05751335 0.021880943 -0.04590294
0.13435967 0.0060225227 -0.040236015 -0.13654588 -0.06445344 0.109255716 -0.0721121 0.027839
0.2069466 -0.19249968 -0.06483493 -0.011242484 -0.10297258 0.14367579 -0.081081145 -0.0817901
-0.16964397 -0.016369916 -0.045851782 -0.18722396 -0.13400242 0.031718053 -0.16214219 -0.28257707
0.10680269 -0.07919261 -0.051310763 -0.13524728 0.06568506 -0.039927837 0.17002961 -0.34601426
0.13748695 -0.060781926 -0.22853187 -0.112794906 0.011789384 0.19083884 0.14774728 -0.058299877
-0.19325478 0.046416204 -0.105427526 -0.19681187 -0.00048697088 -0.24255803 0.16837019 0.0967107
-0.113208644 0.018638514 -0.09280771 -0.080153026 0.24067156 0.0847057 0.021005768 -0.011726593
-0.061665613 0.08135654 -0.11830924 -0.099414244 0.11373835 -0.037462473 -0.18002132 -0.09586752
0.12491961 -0.09239054 0.008448795 -0.09256025 0.046137154 -0.19204092 -0.08376729 -0.2994114
-0.019825464 -0.11258405 0.217653 0.22755457 -0.059579544 0.11809475 -0.1070104 -0.028808411
-0.102243945 -0.089402914 -0.037647426 -0.04481367 -0.27060774 -0.07553559 -0.027476674 0.122256644
-0.14479572 -0.09100398 0.14038607 0.10035012 0.1631556 -0.046898436 0.11385822 -0.091362625

bias f4 [64]
00000000: df32 153e 9f6a b3bc beb7 733e c145 5b3d
00000010: 458f 3dbe 3062 423e daa2 883e 2005 ecbd
00000020: 9c23 83bd 9383 5e3e 24c3 fdbd ae5a 8f3d
00000030: ec04 a43d 5991 76bd 6077 153e 0894 673d
00000040: 883e 953c 023b 76bd 3271 063e c10b e13d
00000050: d150 163e 4513 e7bd af6a 02be 8d83 bdbd
00000060: 4336 173d 0a04 c33d e497 5e3e 9713 b23d
00000070: b5f0 d13d 93b7 a43d cdc0 e9bd 191a 543d
00000080: a893 103e dc25 2ebe 7adf d838 f166 953e
00000090: 9d79 58bd bf71 333e 3840 cabd d4fa 83bc
000000a0: 0b7e 133e c8e2 743e 5be0 963e c3ec 5b3e
000000b0: f5fc 07be fdf0 cf3d 6a34 883e 825a f43d
000000c0: e186 973e a309 ff3c 54e4 f13d f63f 913e
000000d0: 4774 083d 9673 15be eaaf 603e 6fed 89bc
000000e0: fc80 1bbe 0aec 0d3d a7e9 b53d bb5a f9bc
000000f0: 4e28 31bd bd9d 98bc a5a1 f0bd 939d d7bd
0.14570187 -0.021901427 0.23800561 0.05353332 -0.18511684 0.18982768 0.26686746 -0.11524415
-0.06403276 0.21729879 -0.12390736 0.06999718 0.08008751 -0.060197208 0.14596319 0.056537658
0.018218294 -0.060114868 0.13129118 0.1098857 0.14679267 -0.11282972 -0.12736009 -0.09253607
0.036916982 0.09522255 0.21737629 0.08695143 0.10250989 0.080428265 -0.11413727 0.0517827
0.14118826 -0.1700663 0.000103413084 0.291801 -0.052850354 0.1752386 -0.0987553 -0.016110815
0.1440355 0.23914635 0.29468045 0.21477036 -0.13280089 0.10153387 0.2660249 0.119313255
0.29595092 0.031132525 0.11811128 0.2836911 0.033314016 -0.14594874 0.21942106 -0.01683685
-0.15185922 0.034648933 0.08882456 -0.030438771 -0.04325133 -0.018629903 -0.11749581 -0.10528102

weight f4 [32, 64]
00000000: c477 8e3d 266f 593e f3cd a4bd 03d9 033e
00000010: 64ce 2a3e ab83 e63c f72f 223e ff0c c33d
00000020: 57f0 d0bd 3564 bf3c 6a86 013d 498c 53be
00000030: c68a 073e 24dd d43d 74df 203d ddde cf3c
00000040: 67ba 193e ddc4 9d3d 334c 11bd 11c4 553d
00000050: 14f5 a63d da85 d5bd 6484 283d 8f6f c13d
00000060: 7d2d 0cbe 2305 90bd c50e e5bd 84b3 3cbe
00000070: 4907 853e 3017 503d da5f 893d 71a1 97bd
00000080: 26ca e13d 4ddc b6bd 2874 0e3e 9672 053e
00000090: 0f60 4d3e 31f2 0bbe 51b0 00be b058 4d3e
000000a0: b4ba 5e3b ff1d 193d 5468 ccbd db0a 0c3e
000000b0: 4e7f 5a3e de28 78be 0258 a3bc 9383 b53e
000000c0: 1c75 debc 457f 25be 57b5 0d3e 2cad 883c
000000d0: 38f7 763d 7018 873d e44a ecbc 7c57 0dbe
000000e0: 331a 193e 2e20 babc 1dae ef3e 4122 bb3d
000000f0: 1c2f c0bc 9e33 ccbd d53b d43d 3dba e43d
00000100: 770d 4b3d bbac 1bbc 3bc7 5c3e 931d 123e
00000110: 5fab bd3d 47d5 d3bb 06b1 353e d53f 86be
00000120: 630c 8d3d c991 903e f3d2 013e bc48 3fbd
00000130: 62c1 dabc 36ae cabd 766d 9a3d ebb8 c0bd
00000140: daa5 053e 0709 8dbd ad46 6fbc b8e7 12be
00000150: d412 4a3d 8df3 243d f2b4 3ebe c2fb 14be
00000160: 1fd1 ce3d a42a 11be a8b1 1d3e ff81 ccbd
00000170: 677d a6bc cfe4 ce3d 431b 5abc 6ec0 dc3d
00000180: d1ca 0a3e b389 083e 413a 57be 2157 043e
00000190: 1f5e af3a 31aa 22be 7567 843c 2094 a03d
000001a0: ba67 86be 7ffe a13d d7e6 693d b708 d9bd
000001b0: 5c96 3cbd de7b b13d 7aeb c73d 3229 de3d
000001c0: bbf5 be3d d530 393e 2099 2fbe fce2 783e
000001d0: b709 c4bd 154a f9bd f21f 893d 42c5 fb3c
000001e0: 5063 d7bd e773 7fbc afd4 db3d 6da8 fbbd
000001f0: 5dc7 8fbe 1437 2fbc 3b45 29bd b02d b43d
00000200: aaac 30bd b861 88bd 0708 26be 3938 143e
00000210: e9aa 4a3e e563 373e 7262 d3bd 8530 623e
00000220: 61e7 9dbd ba24 733c fd4a a53d 2b67 103e
00000230: 3bf0 003e 236e cc3d 1e68 8ebe 9594 d1bc
00000240: 4404 7cbd fe5f bbbd 26d6 043e 5572 2f3e
00000250: 0466 073e 967b 9ebd 42e6 c83d ff69 8e3d
00000260: 190c 3e3d cc57 173e b3e1 123d 26a4 e33d
00000270: e0c5 9ebd 1c32 67be c045 d7bc 8d07 86bd
00000280: 3e51 10be 982d 373e 516a 253e 6740 79bd
00000290: 6fa8 b93c 6ca0 9f3e 2be7 053d 41d7 90bd
000002a0: 393b 8e3e 9455 bd3d c862 293e e242 453c
000002b0: 18ce a3bd 2830 5fbd 4e4a 07be 9b19 f5bd
000002c0: ea7d 733b 6e99 b7bd bbd3 59bd 9fa7 26be
000002d0: df00 82bd 574b 993d 63b4 ddbd 5878 683d
000002e0: c01a a2bc c9e9 27be f165 00be 29a9 2c3d
000002f0: a28a 733e 6d7e 123e de6a a73d e1cc 8a3d
00000300: 1131 fbbd 91f5 b23d 8c9b 5cbe 6315 e73c
00000310: e0bd 7bbd 2060 c8bd 1e62 bcbe 7581 cdbd
00000320: 3ee9 25bc bab8 2ebd 04a6 35bc 00f9 133e
00000330: 5248 72bd 023e 2f3c 6a9c 763d 8b17 e63d
00000340: eb97 73be f43d d9bd bbb0 42bd 4d2d 043e
00000350: 58e6 57be bd7e aebc ebc7 71bd 5301 3b3e
00000360: 95d2 593e 7164 e1bc 8925 18be 68cd 4abe
00000370: 0ce1 373e 2448 1c3e 7345 133d 7849 93bd
00000380: 3fba d43d 0594 573e 177f 133e 4551 043d
00000390: 906e 87bc ae27 083e 1aa2 573c e0cf cebd
000003a0: fb53 0fbe 1db0 f4bd fd39 30be 07d5 1f3e
000003b0: 7dad eebd 5317 253d 3fbb 87bd e23e b7be
000003c0: 8c10 32be 1307 093e 67b8 dc3c c7d3 a9bd
000003d0: a6e4 8bbe 8842 813d 4e62 ffbd 83eb 9c37
000003e0: 273d e33d cc48 4a3b efef e83d 2ad2 9fbc
000003f0: 1942 7f3e 4de6 a73d b697 9e3d 1cc5 1f3d
0.06956437 0.21233806 -0.08047094 0.12875752 0.16680294 0.028138956 0.1583861 0.09523963
-0.10202091 0.023363212 0.031622328 -0.20658983 0.13236532 0.10393742 0.0392756 0.025374824
0.15012513 0.07703564 -0.03547306 0.052188937 0.08152214 -0.10425921 0.041141883 0.09445106
-0.13689227 -0.0703223 -0.11184458 -0.18427855 0.2598212 0.050803363 0.06707735 -0.074038394
0.11024885 -0.08928738 0.13911498 0.13031992 0.20056175 -0.13666607 -0.1256726 0.20053363
0.0033985795 0.037382122 -0.099808365 0.13676016 0.21337625 -0.2423434 -0.019939426 0.35451946
-0.027155451 -0.1616183 0.13838707 0.016684137 0.06029436 0.06596458 -0.028844304 -0.13802904
0.149514 -0.022720423 0.46812525 0.09137393 -0.023459964 -0.09970783 0.103629746 0.11168335
0.049573388 -0.009501631 0.21560375 0.14269094 0.09261202 -0.0064646336 0.1774331 -0.26220575
0.06887128 0.28236225 0.12678127 -0.046700224 -0.02670354 -0.09896509 0.07540409 -0.0941027
0.13051549 -0.068864875 -0.014604253 -0.14346206 0.049334362 0.04027133 -0.18623713 -0.14549163
0.100984804 -0.14176422 0.15399802 -0.09985732 -0.020323468 0.101022355 -0.013312164 0.107788906
0.13553931 0.13333778 -0.21018316 0.12923862 0.0013379491 -0.15885235 0.016162613 0.078407526
-0.26251012 0.079098694 0.05710491 -0.10597365 -0.04604183 0.08666204 0.097617105 0.10847701
0.09324213 0.18085034 -0.17148256 0.24305338 -0.095721655 -0.12172333 0.06695546 0.030733708
-0.10516989 -0.015591598 0.107339256 -0.12287984 -0.2808179 -0.010694284 -0.04132579 0.08797777
-0.043133415 -0.06659263 -0.16214 0.14474572 0.1979176 0.179092 -0.10321511 0.22088821
-0.07710148 0.014840299 0.080709435 0.14101855 0.1259164 0.099819444 -0.2781381 -0.025583545
-0.061527506 -0.091491684 0.12972316 0.17133458 0.1322251 -0.07738416 0.09809543 0.06953811
0.046398256 0.14779586 0.035859775 0.11115293 -0.077525854 -0.22577709 -0.026278377 -0.06544409
-0.14093491 0.17888486 0.16153838 -0.060852434 0.022663323 0.3117708 0.032691162 -0.070723064
0.27779558 0.09244838 0.16541588 0.012039872 -0.07998294 -0.054489285 -0.13211939 -0.119677745
0.0037153908 -0.08964811 -0.053180438 -0.1627488 -0.063478224 0.07485073 -0.10825422 0.056755394
-0.019788146 -0.16397776 -0.12538888 0.04215351 0.23783353 0.1430604 0.0817468 0.06777359
-0.12265218 0.08738244 -0.21543711 0.02820844 -0.061460376 -0.097839594 -0.36793607 -0.100344576
-0.01012641 -0.042656638 -0.0110869445 0.14450455 -0.059151 0.010695936 0.06020776 0.11234959
-0.23788421 -0.1060752 -0.047531825 0.12907906 -0.21083963 -0.021300668 -0.059028547 0.18262224
0.21271737 -0.027513715 -0.14858069 -0.19804919 0.17956942 0.15261894 0.035954904 -0.071917474
0.10387086 0.21052559 0.1440395 0.032304067 -0.016532212 0.13296387 0.013161207 -0.10098243
-0.1399688 -0.119476534 -0.17209621 0.15608607 -0.11654184 0.040305447 -0.06627511 -0.35790163
-0.17389125 0.13381605 0.026943399 -0.082923464 -0.27322882 0.06311518 -0.12469922 1.8706318e-05
0.11095648 0.0030866144 0.11373889 -0.019509394 0.24927558 0.08198223 0.0774378 0.039006338

bias f4 [32]
00000000: d2f7 ec3d 8591 903e 8126 d63d b93a 82bb
00000010: 91ef 943d 872a 153e 80c8 b5bd 9f2e 9f3e
00000020: 6f47 373e aa2a 553d 75c3 d1bd c163 b63c
00000030: 4bb4 2e3e 936b 883d 8c43 a13e 3d63 3bbd
00000040: 3a08 15be bd77 da3d 991f 4d3e d842 bc3d
00000050: 6152 213e f41a c63d 84ba 12be 7960 cc3d
00000060: 9180 503d 0762 5a3e 7e33 663d eac2 c83c
00000070: bcf9 bdbd c0c6 5e3e 3abe 143e c865 7fbd
0.115707055 0.28236023 0.10456563 -0.0039742854 0.07272256 0.14567004 -0.08876133 0.31090257
0.17898344 0.05204264 -0.102423586 0.022264363 0.17060964 0.06661143 0.31496847 -0.045748938
-0.1455392 0.106673695 0.20031585 0.09192437 0.15754081 0.0967311 -0.14328963 0.09979338
0.05090386 0.21326457 0.05620145 0.024507005 -0.09276149 0.21755505 0.1452569 -0.062352926

weight f4 [10, 32]
00000000: da1b c2be b74c e63d 9fe8 67bc ec6c adbd
00000010: a81f 973e 769a f3bd 6a67 913d 9877 0d3e
00000020: 060a 9abe f7b5 1abe 5e84 f23d 0fff d0be
00000030: b0c9 1f3e e818 2e3d 1ad8 dabe 4577 edbc
00000040: d491 3abe e5a1 bfbb 97c7 77bd 3dc1 0dbe
00000050: 6b9f 143d d692 f13d ce89 df3d 8f7a 9cbd
00000060: 863b c33d a465 bebe 2463 d43d 0913 3fbe
00000070: 35be 86bd f23c 8839 431d 9fbb 1e00 22be
00000080: 81cc ee3d 8b50 33be d85f 77bd b465 5dbe
00000090: 3812 24bf 4079 6fbe 7151 12bf d7b9 00bb
000000a0: 1ba2 2c3d 0418 f83d df38 0bbe 691c f0bd
000000b0: 2449 a9bd c97c a2be 2f28 87be be1b 5abe
000000c0: 40a3 5cbe 4feb 843e fd73 7abe 4ac7 733e
000000d0: d997 28bd 5c4e 69bd 9366 adbe d198 7b3e
000000e0: 27c3 ddbe 5298 b03d 324c 01bd 8fad de3d
000000f0: 5845 cabc 0440 f9bd 4ca8 0dbd 8495 21be
00000100: 2204 03be f8d2 193e 0e62 40be 2c6a 0e3c
00000110: 4cf0 c23d e611 d23d e851 67bd c39e 8a3d
00000120: 7195 d1be 7c43 0c3e 4c79 0abe 3c02 3abe
00000130: 7012 d2ba 72a2 46be 4cab 2dbd b5e6 46bd
00000140: 771b 2cbe eea0 7b3d bb36 e1bd ff62 8c3d
00000150: 2b05 99be cf40 283e 6a0f 50be 7fd4 7cbe
00000160: 8519 f0bd 2def 693e ea54 1abe 3f22 e33c
00000170: 23dc 4ebe ae63 8cbd 5fb7 09be e15d 96bd
00000180: d0cb 143e dd21 4fbe a300 35bd 8ad4 353e
00000190: 02b9 17be 7cdd 1b3e bf07 d8ba be1d 9abc
000001a0: 4bac 46be 3469 d83d 405d fb3c 6d5e 1dbe
000001b0: c22a 0f3c 0ca6 863d dfa3 4e3d 6c84 2e3e
000001c0: 7b7a a63d 64bc 81bd 8e02 8abe 8efd 023e
000001d0: 2b82 713c 20d1 24bd 7a77 a0be 2a41 c7be
000001e0: 6e7f efbb 6f6d 4ebe a02c 863c c683 e03d
000001f0: 92f9 3c3d 4d1b 4fbe 3292 e5bd bb9a b73c
00000200: 9d8d c23c 1e4c 1f3e 633b ccbe 25d9 f1bd
00000210: 5034 44bd b186 65be c34f b1bd 6975 51be
00000220: 223a 433e 7f42 61be 3272 04be e91e 2fbd
00000230: 19af b33d 3cc6 cdbd 5e15 263c ec09 8dbe
00000240: 7ac0 b43c 7036 b43c d99f 0d3e 1177 d5bd
00000250: f8dd f1be 817c 443d 81e3 0abd cac8 85bd
00000260: 60cf 1bbe 958d 053e 65d8 2c3e 9ae2 32be
00000270: ca2a 403c b5f6 6d3e 8bca e3bd 4533 d03d
00000280: c655 87be e1a3 4abe c717 153e e1e1 26bc
00000290: 4093 90be b8aa 70be 1bfb 40be 7cbf 0a3e
000002a0: 3b19 803d 165a 993c f48f 303d a44f 13be
000002b0: f198 f3bd 7ce2 073e e43e 293e 8abc 9ebc
000002c0: c71a 9a3d a43a 15bd 259a ba3c 7836 1f3d
000002d0: 1f36 2c3e 9ba5 d9bd 57d2 84be 3882 42bc
000002e0: c80c ce3d 3706 55be 486a 103e 20e4 e53d
000002f0: 11eb ad3d 4d00 c7bc 440b 803c 9648 2d3c
00000300: 834c d1be 730e d1bc 5553 893d 2fa1 fb3c
00000310: 972a 56be 8761 08bf a67d fcbe e6f2 1c3e
00000320: a609 cd3c 55dc 8fbe 49c2 263e 3636 07bf
00000330: 4766 01bd 9f5f a2bd 6aea 8d3c 6705 6fbd
00000340: c5c0 fa3c c28d 453e aa94 263e 4ead 263e
00000350: bc57 84bd 2601 e93d 7484 243e 538a 94be
00000360: 5331 04be 43f0 5cbe d8bc 8f3d df9d a0be
00000370: ef4e 7d3d b4a6 4dbe 8628 c7be 2a84 b4bc
00000380: 05b9 703d 7513 96bd b19a 1fbe b494 62be
00000390: 2e2b b13c 4fb6 143e 7858 37be c0ff 8bbe
000003a0: e568 d0bc 1fec 223e 6ceb cdbd 3bb7 00bd
000003b0: ba32 c7be 00bd df3d a417 01be 36af 703d
000003c0: 8ade 2dbe 9682 4dbe 4738 22be 78a3 53be
000003d0: 4a44 85be a355 28be 4591 8ebe d15f 2b3e
000003e0: 99d2 a4be c5b9 ae3b 6582 803e a5ba ddbd
000003f0: a421 82bc 90f8 22be 55ee 443e ffc5 16be
-0.37911874 0.11245101 -0.014154582 -0.08468041 0.2951634 -0.118946955 0.07099803 0.13815153
-0.30085772 -0.15108477 0.11841653 -0.40819594 0.15604281 0.04250422 -0.42742997 -0.028987536
-0.18219692 -0.0058481568 -0.060493078 -0.13843246 0.036284845 0.11795585 0.10914956 -0.07640564
0.095328376 -0.3718692 0.10370472 -0.18659605 -0.06579248 0.0002598535 -0.004855783 -0.15820357
0.116601 -0.17511193 -0.060394138 -0.21620828 -0.640903 -0.23386097 -0.5715552 -0.001964202
0.042146783 0.121139556 -0.13595913 -0.11724169 -0.082659036 -0.3173583 -0.26397845 -0.21299645
-0.2154665 0.25960776 -0.24458309 0.23806491 -0.04116044 -0.056959495 -0.3386732 0.24570014
-0.43312952 0.08622803 -0.031566806 0.108729474 -0.024691269 -0.12170413 -0.03458433 -0.15779692
-0.12794545 0.15021884 -0.18787405 0.008692306 0.09518489 0.1025732 -0.056474596 0.06768563
-0.40934327 0.13697618 -0.13522834 -0.18164915 -0.0016027223 -0.19397905 -0.04239969 -0.048559863
-0.16807352 0.06143277 -0.10996767 0.068548195 -0.29886755 0.16430973 -0.2031838 -0.24690436
-0.117236175 0.22845145 -0.15071455 0.02772629 -0.20201163 -0.0685495 -0.13448857 -0.07342125
0.14530873 -0.20227762 -0.04419006 0.17756858 -0.14816669 0.15221208 -0.0016481801 -0.01881301
-0.19401662 0.10566941 0.030684114 -0.15368052 0.008738222 0.0657464 0.05044925 0.17042702
0.0812883 -0.06334761 -0.26955074 0.12792036 0.014740507 -0.0402385 -0.31341153 -0.38916904
-0.007308892 -0.20158933 0.0163787 0.10962634 0.046136446 -0.20225258 -0.11209525 0.022412648
0.023749167 0.1555638 -0.39889058 -0.11808995 -0.04790145 -0.22414662 -0.086577915 -0.20454945
0.19065145 -0.21998022 -0.12934187 -0.042754088 0.087736316 -0.10047576 0.01013693 -0.27546632
0.022064436 0.021998614 0.13830508 -0.10423101 -0.4723966 0.0479703 -0.03390837 -0.06532438
-0.15215826 0.1304229 0.16879423 -0.17469254 0.011728952 0.23238643 -0.111226164 0.10166029
-0.26432627 -0.19789077 0.14559852 -0.01018569 -0.28237343 -0.23502624 -0.18845789 0.13549608
0.06254812 0.018719714 0.043106034 -0.14385849 -0.11894406 0.1326999 0.16527897 -0.019377012
0.075246386 -0.036432877 0.02277858 0.038870305 0.1681752 -0.1062729 -0.25941727 -0.011871867
0.100610316 -0.20803152 0.14103043 0.11225152 0.08492101 -0.024292136 0.015630372 0.010576388
-0.40878686 -0.025519585 0.067053474 0.030716507 -0.20914684 -0.53273815 -0.49314612 0.15327033
0.025029015 -0.28097787 0.16285051 -0.52817094 -0.03159168 -0.079283945 0.017323691 -0.05835476
0.030609498 0.19292358 0.16267648 0.16277048 -0.064620465 0.11377172 0.16066152 -0.29011783
-0.1290944 -0.21576028 0.07018441 -0.31370446 0.061842855 -0.20083123 -0.38898104 -0.022035677
0.0587702 -0.0732793 -0.15586354 -0.22127038 0.021627035 0.1452267 -0.17904842 -0.2734356
-0.025440643 0.15910386 -0.10054669 -0.031424742 -0.3890589 0.10924721 -0.12606674 0.058760844
-0.16979423 -0.20069346 -0.1584178 -0.20667827 -0.26028663 -0.16438918 -0.27845207 0.1673577
-0.32191923 0.005332204 0.25099483 -0.10826615 -0.015885182 -0.15915132 0.19231541 -0.14723967

bias f4 [10]
00000000: cb14 3f3c 671c 58bc 6b20 01bd 1783 4abe
00000010: b432 513d 5469 0cbe 03e4 58bb 7277 c6bd
00000020: a7e3 863e 9b1c c3bd
0.011662672 -0.013190365 -0.031525057 -0.1977657 0.051073745 -0.13712054 -0.003309489 -0.09690751
0.2634556 -0.095269404
